AprendizajePorRefuerzo/Practicas/Sesion4-MCTS/tic_tac_toe_best_model.pth (torch, 150311 bytes, 11 tensors)

conv1.weight f4 [8, 1, 1, 1]
000000 87 17 b0 be 60 99 ed 3e da 3c fb be 01 39 39 3f
       -0.3439295 0.46406078 -0.49069864 0.72352606
000010 62 2c f1 be eb 6c 0e 3f 51 fe e4 3e 68 96 a9 3e
       -0.47104174 0.55634946 0.44725278 0.33122563

conv1.bias f4 [8]
000000 0d a1 b4 3e 8a 72 4b bf 4a f4 20 3f 9a 07 5d be
       0.35279122 -0.7947165 0.62872756 -0.21584931
000010 fa fa 68 bd 2c 1f 66 3f 46 e9 4d bd 4c 9e 27 bf
       -0.056879975 0.89891315 -0.050271295 -0.65475917

conv2.weight f4 [16, 8, 1, 1]
000000 f4 fc b9 3d 3b c5 8c 3e 08 3f 28 3e 7f f7 b2 bd
       0.0908145 0.27494225 0.16430295 -0.087386124
000010 7b 75 8b bd 79 d1 64 bd 7a 34 b4 3d 6c be 6b be
       -0.06809517 -0.05586383 0.087990716 -0.23021859
000020 3f 66 73 3e d4 4a 79 be 20 30 41 3c 34 18 81 3e
       0.23769473 -0.24344951 0.011791259 0.25213778
000030 1a a9 4b 3e 94 59 a5 3e 39 a0 a0 3e ac c0 95 3d
       0.19888726 0.32294905 0.3137224 0.0731214
000040 2d 9c 80 3e 80 b6 06 3e da 9b 5c be 40 21 56 be
       0.25119153 0.13155556 -0.21543828 -0.20911121
000050 0e 2d 47 3e 68 41 89 bc 00 22 a9 bd 20 44 55 3d
       0.19450781 -0.016754821 -0.08258438 0.052066922
000060 24 c4 1b be 4a a5 35 3e 37 0a 81 3e 22 05 ff bd
       -0.1521154 0.17738834 0.25203106 -0.12452151
000070 a1 f8 49 bd 95 16 6e be f0 59 87 3c da 80 6d be
       -0.049309377 -0.23250802 0.016522378 -0.23193684
000080 50 58 82 be 55 33 4c be d2 53 34 3e 34 8a ee bd
       -0.25458002 -0.19941457 0.176101 -0.11647454
000090 ec 02 da bd d8 28 95 be 88 39 3c bd ce dc a8 be
       -0.106450886 -0.29132724 -0.045953304 -0.3298096
0000a0 f7 d6 48 be fc 55 8c be b0 20 8b be ec 9d 72 be
       -0.19613253 -0.2740935 -0.27173376 -0.23693055
0000b0 c0 86 6d be 4d 32 99 3e a0 c1 a7 be c1 43 17 be
       -0.23195934 0.2992119 -0.32764912 -0.1477194
0000c0 65 3e b3 be 3a d3 1d 3e 34 c5 2e 3e f3 3d 5a 3e
       -0.3500854 0.15412608 0.17067415 0.21312694
0000d0 f7 7c ab be 3a 28 8c 3e eb 05 00 bd 00 df 67 3b
       -0.33493778 0.2737444 -0.031255644 0.003538072
0000e0 c1 ef a8 be 96 00 30 3e 00 f1 39 bb 84 7b a2 bd
       -0.32995418 0.17187724 -0.0028372407 -0.07933715
0000f0 dd d0 9d 3e c8 22 2a 3d d4 8d ae bd 6f 50 a9 be
       0.30823413 0.041537076 -0.08523145 -0.33069178
000100 cd cc 96 3e 0f 68 65 be 53 ed cb 3d b3 5f 07 be
       0.29453126 -0.22402976 0.099573754 -0.132201
000110 18 bd a8 3e 28 8e 98 3e 0c 18 a0 3e 9d 92 98 3e
       0.32956767 0.29795957 0.31268346 0.29799357
000120 8c a9 91 be 8a ee 93 be 1e a3 56 3e 81 cf a0 3e
       -0.28449667 -0.28892928 0.20960662 0.31408313
000130 24 c2 94 3d 51 12 8a be 42 40 6a be 41 ff 95 3e
       0.07263592 -0.269671 -0.22876075 0.29296306
000140 3b b1 e1 bd 89 89 99 3e c7 ab 0b 3e 05 23 48 3e
       -0.11020132 0.29987743 0.13639747 0.19544609
000150 2a 3f 96 3e eb cd 1e 3e 04 0e 2a 3e e0 14 50 3c
       0.29345065 0.15508239 0.16606909 0.0127002895
000160 d2 44 63 3e b7 51 37 be 0e 41 5b 3e d9 36 01 3d
       0.22194222 -0.17902265 0.21411535 0.031546447
000170 bb 81 aa 3d 24 15 60 3e 1e 6a 9b be 80 29 a9 be
       0.083255254 0.21883065 -0.30354398 -0.33039474
000180 12 35 c4 3d f4 e4 df 3d 4e 5b 93 be fa f5 a1 3e
       0.09580435 0.10932341 -0.28780597 0.31632978
000190 5e 82 80 bc e1 8d bc 3d 4e 9a 8f be 34 ee 31 be
       -0.015687164 0.09206749 -0.28047413 -0.17376024
0001a0 d2 0a 2d 3e 8a 7c eb bd de 23 4f 3e 0a 1d 36 3e
       0.16898659 -0.11498363 0.20228526 0.17784515
0001b0 80 db 9a 3b c9 2e a6 be a4 bf e6 3d 2c 8a 02 3e
       0.0047258735 -0.3245757 0.11267021 0.12748021
0001c0 f7 25 91 be f0 2f ae bd bf 2e 76 be f5 d2 3f 3d
       -0.28349277 -0.08505237 -0.2404127 0.046832044
0001d0 f0 ee 06 3e cd c1 94 3e de ea 43 3e 84 96 e0 3d
       0.13177085 0.29054108 0.19132563 0.109662086
0001e0 48 cc 7d bd b4 71 f0 3d df 16 b3 be ed 41 b2 be
       -0.061962396 0.11740437 -0.34978387 -0.34815922
0001f0 c0 82 ae bb 2d 1f ab 3e 3b b9 52 be 3b 9b 9b 3e
       -0.005325645 0.33422223 -0.20578472 0.3039187

conv2.bias f4 [16]
000000 06 26 a7 3d 2b 0a 87 be 9e 3b 58 3e 17 15 37 3e
       0.08161549 -0.26374945 0.21116492 0.17879139
000010 c0 cb a0 3d 63 99 09 be cb fe 51 3e b8 0d 0e bd
       0.07851362 -0.13437419 0.20507352 -0.034681052
000020 e5 bf 83 bc 6e a7 61 be 10 90 56 3e 7b a4 a2 3e
       -0.016082713 -0.22036526 0.20953393 0.31766114
000030 d1 07 73 3e c3 c0 7f be b6 af a8 be f0 95 87 be
       0.2373345 -0.24975877 -0.32946557 -0.2648158

conv3.weight f4 [32, 16, 1, 1]
000000 4c 8a 1e 3e c4 91 d6 3d 20 2d 97 bd 9c 06 2f 3e
       0.15482444 0.10477021 -0.07381654 0.17092365
000010 ae 59 19 be 54 a3 c0 3d 74 c5 f2 bd 8e 40 7c be
       -0.14975616 0.09406152 -0.118540674 -0.24634
000020 00 57 cb bd 6c 9b e7 3d 08 7d d4 bd 24 c9 62 be
       -0.09928703 0.11308941 -0.1037541 -0.22147042
000030 0c 97 3b be 40 d0 cb 3d 18 12 7e 3d dc 90 1b be
       -0.18319339 0.0995183 0.062028974 -0.15191978
000040 89 d2 19 3d 69 ed 5c be e1 5c 12 3e e1 d5 57 3e
       0.037554298 -0.2157494 0.14293243 0.21077682
000050 b2 94 02 3e b3 cf 2d 3e a8 2b 1a be 10 34 d1 bc
       0.12752035 0.16973762 -0.15055716 -0.02553752
000060 19 5a a9 3d 20 62 af 3d f5 b4 e0 bd c8 1a d9 3d
       0.08269138 0.08563638 -0.10972015 0.10600811
000070 82 be 0c 3e 92 0c 3a 3e 1a c5 17 3e 7c 50 c4 3d
       0.13744548 0.18168858 0.14821282 0.09585664
000080 f0 f4 e7 bd a8 63 b6 bd ec 3f 2f bd dd ee 10 be
       -0.11326015 -0.08905727 -0.04278557 -0.14153619
000090 20 79 16 3c 1f 07 74 3d a4 ed 3f be 08 cb ee bd
       0.009184152 0.059577104 -0.18742996 -0.11659819
0000a0 95 e8 54 bd 16 94 09 3e 89 33 5d be 8a e8 4c 3e
       -0.05197962 0.13435397 -0.2160169 0.20010582
0000b0 be a4 7e 3e f0 5e 4e be 7c 82 7e 3e d4 43 bd bd
       0.24867532 -0.20153403 0.24854463 -0.09241453
0000c0 7a 2c 0a be de dd 5e 3e 46 1e 01 be 70 38 2d be
       -0.13493529 0.21764323 -0.12609205 -0.1691606
0000d0 90 8d 32 bd 4c 62 f8 3d cc 38 70 be 40 8a b1 3b
       -0.043592036 0.12128124 -0.23459166 0.005418092
0000e0 24 27 0d 3e a8 2b 4b 3d 92 54 0f be 18 da 97 bd
       0.13784462 0.04960218 -0.13997105 -0.07414645
0000f0 fc eb 5c 3e 00 be 89 bb 86 9e 1d 3e b2 a6 7e be
       0.21574396 -0.004203558 0.15392503 -0.24868277
000100 48 1b ca 3d 20 a2 f9 bd 80 23 e4 3c 90 07 7a 3e
       0.09868485 -0.12189126 0.027848959 0.24416947
000110 c0 47 c7 3b 48 2f 9c 3d 16 70 7f be 9e 38 0b be
       0.0060815513 0.07626206 -0.24945101 -0.13595816
000120 d0 b2 69 be 72 e5 07 3e 40 8f 3b bc 9e a2 52 be
       -0.22822118 0.1327112 -0.011447728 -0.20569846
000130 c0 71 10 be c8 b1 83 3d 22 61 22 3e 18 20 24 be
       -0.14105892 0.064303935 0.15857366 -0.16027868
000140 24 95 42 be 14 66 78 be 00 15 4b 3e c0 25 0b 3c
       -0.19002205 -0.2425769 0.1983223 0.008492887
000150 5a 68 40 be 90 1f af 3c c8 fe f2 3d d8 ef 74 bd
       -0.18789807 0.021377355 0.11865002 -0.059799045
000160 3a 73 3d be 40 de 21 3c 98 3f 33 3d b4 5c 88 bd
       -0.18500987 0.009879649 0.04376182 -0.06658307
000170 94 71 59 be 10 9a db 3d 3c ea 34 3e e4 73 88 bd
       -0.21234733 0.107227445 0.17667478 -0.066627294
000180 5a 18 bf bd 27 bc 6d be a9 0b b1 3a 8b 59 82 3c
       -0.093308166 -0.23216306 0.0013507503 0.015911838
000190 b2 49 1e 3e 93 06 8e 3d bc 51 d5 3d 30 ee f0 3c
       0.154578 0.06934848 0.1041598 0.029410452
0001a0 01 99 76 be a0 24 88 bd 4b ef b0 39 b8 94 17 3e
       -0.24081804 -0.06647611 0.00033747623 0.14802825
0001b0 5f 33 10 bd 90 cd 3d 3d 60 8d 1d be 8a 42 09 3e
       -0.03520524 0.046338618 -0.15385962 0.13404289
0001c0 f4 62 1e 3e 10 9d 3b be 5e f4 42 be 8c 3c 6b be
       0.15467435 -0.18321633 -0.19038531 -0.22972316
0001d0 9c aa 26 be 34 dd ea 3d 72 78 47 be 4e 87 3a 3e
       -0.1627602 0.114679724 -0.1947954 0.18215677
0001e0 82 80 3f be 74 a2 db 3d 74 31 89 3d de cc 24 be
       -0.18701366 0.10724345 0.066988856 -0.16093776
0001f0 40 44 22 bc d0 a9 5a be 00 02 a6 ba 58 72 1f be
       -0.009903967 -0.21353841 -0.0012665391 -0.15570962
000200 10 f5 68 3d 2c a3 f8 bd c0 d6 76 bc ec 34 8d 3d
       0.056874335 -0.121404976 -0.015065849 0.0689486
000210 d8 c8 23 bd c0 a4 84 3d 00 ab 1b 3b 10 a7 d0 bc
       -0.03998646 0.06476736 0.0023753047 -0.025470287
000220 b0 9b 1f be 48 2e f1 bd f0 64 73 bd 66 3a 51 3e
       -0.15586734 -0.117764056 -0.059422433 0.20432433
000230 58 bf 7f 3d f0 d5 cd 3c f0 a2 c7 bc 9a d1 31 be
       0.06243834 0.025126427 -0.024369687 -0.17365113
000240 c1 85 a7 bd d5 51 d8 3c 4e a3 ee bd b3 b2 36 3e
       -0.081798084 0.026406208 -0.11652242 0.17841606
000250 d0 c8 44 bd 1a fe 70 be 1e 5d 63 be 3a 91 6a 3e
       -0.048043072 -0.23534432 -0.2220349 0.22906962
000260 71 69 32 3e 6c ad dc bd b7 cf c4 3c a6 f4 7f 3c
       0.17423035 -0.10775265 0.024024827 0.015622294
000270 40 a1 0f 3e b2 38 05 be 95 24 3f 3e aa f9 1c 3e
       0.14026356 -0.13009909 0.18666299 0.15329614
000280 81 1d df 3d 85 8a 02 3e 52 4a 76 3e 35 80 d2 3d
       0.10894299 0.12748154 0.24051788 0.1027836
000290 a6 d7 08 be 80 79 99 3d 9b 69 5c be 52 b2 0e be
       -0.13363513 0.074938774 -0.2152466 -0.13935211
0002a0 69 38 c3 3d 90 be 2c bd 21 33 19 be 55 f7 c3 3c
       0.09532244 -0.042173922 -0.1496091 0.023921648
0002b0 8f fd bb bd f2 47 22 be ba 45 08 3e 2c 77 f2 3d
       -0.09179222 -0.15847757 0.13307849 0.118391365
0002c0 1e ea c6 3d 8f 91 da 3d f8 c8 08 3e 34 52 e3 bc
       0.09712623 0.10672294 0.13357913 -0.027749158
0002d0 c0 42 d7 bd bc 08 5f 3e df 03 69 3d 50 b1 1c be
       -0.105107784 0.21780676 0.056888457 -0.15302014
0002e0 a2 b9 9d 3d 9e 38 35 3e 54 aa 27 3e 83 69 bf bc
       0.07701422 0.17697379 0.16373569 -0.023365742
0002f0 77 52 51 bd 1c 65 a1 3d a5 c8 1b bd f0 ac bf 3d
       -0.051104035 0.07880613 -0.038033146 0.09359157
000300 cb e3 47 3e 88 58 52 be c6 f1 3b be a8 c8 7a 3e
       0.1952049 -0.20541584 -0.18353948 0.24490607
000310 70 50 e4 bd ba 51 31 3d c5 4c 80 be c0 61 3f 3d
       -0.11148155 0.04329083 -0.2505857 0.04672408
000320 23 4c 43 3e d0 26 1f bd 14 45 66 3e b1 fe 62 3e
       0.19072013 -0.038855374 0.22487289 0.2216747
000330 0c 50 11 3d c0 6c fc 3c 64 9a 56 bd b0 b0 13 3d
       0.03547673 0.030813575 -0.052393332 0.036057174
000340 b0 9d 42 3d 20 91 fe 3c 56 78 6b be 24 ce 68 3e
       0.047513664 0.03107506 -0.22995123 0.22734886
000350 64 16 cd bd 80 96 5d 3c 8c a1 7a be 68 68 5d 3d
       -0.10014036 0.0135246515 -0.24475688 0.054054648
000360 d4 29 98 3d 72 25 0b 3e d0 36 e7 bc e6 47 6b be
       0.07429853 0.13588503 -0.028224379 -0.22976646
000370 e4 2c d9 3d a0 73 45 bd 4c 7a a5 3d 7c fb db bd
       0.10604265 -0.04820597 0.08079967 -0.10741326
000380 43 15 bc 3d 4d 07 bb 3d c0 93 55 bd 90 50 b5 bd
       0.09183743 0.09132252 -0.05214286 -0.08853257
000390 64 d6 b2 3d ca 28 7c 3e 7b 08 32 be bc be 4e be
       0.08732298 0.24624935 -0.17386048 -0.20189947
0003a0 4b 22 1b 3e 48 d6 bd 3d e4 42 4e 3d 16 ff 55 3e
       0.151498 0.092693865 0.05035676 0.20898089
0003b0 9c 3c 43 bc 24 7f e2 bd 3e 69 94 3d cc 58 c2 bd
       -0.011916306 -0.110594064 0.07246636 -0.09489593
0003c0 40 ff 62 bd b1 31 8b 3c 98 4d 22 bd 37 3c 40 3e
       -0.055419207 0.016991468 -0.03962478 0.1877297
0003d0 54 9f ad 3d 35 a5 7b be 7c 46 6b be 00 21 9c bd
       0.08477655 -0.2457474 -0.22976106 -0.07623482
0003e0 64 84 6d 3e d0 a9 8d 3c ff 5a 38 3e a3 cc 00 be
       0.23195034 0.017292887 0.18003462 -0.12578063
0003f0 8c e4 de bd 40 97 21 bd ff 5d 8e bc 20 81 ce 3c
       -0.108834356 -0.039450884 -0.017378805 0.025208056

conv3.bias f4 [32]
000000 d0 11 85 3d 70 df 3e 3e 37 ac 4f 3e f8 8c 16 bd
       0.06497538 0.18639922 0.20280538 -0.036755532
000010 f0 34 bf bc 04 12 cc 3d f4 30 41 3e 7c 54 c2 3d
       -0.023340672 0.09964374 0.1886633 0.0948877
000020 be ff 49 be 4f 9b 1a bc da 73 da 3d 5a 4f d1 3d
       -0.19726464 -0.0094364425 0.10666628 0.10220213
000030 b4 bb 23 3e b8 25 a7 bd 6e 99 55 3d 70 5c 14 3e
       0.15989572 -0.08161491 0.052148275 0.14488387
000040 12 ed 5b 3e 9b 66 12 3e 9b 54 83 bc 32 92 38 be
       0.21477154 0.14296953 -0.016031554 -0.18024519
000050 48 bb 40 be 30 8d 51 bd 8d 0b 68 3e e0 f4 c5 bd
       -0.18821442 -0.051160038 0.22660656 -0.09665847
000060 6c 86 49 3e 12 17 31 be 40 33 9d bd 57 59 09 3e
       0.19680184 -0.17293957 -0.07675791 0.13412987
000070 62 9f 8e bc 2c 3e 17 3e 67 31 a3 3d 15 5d 4d 3e
       -0.017409984 0.1476981 0.07968407 0.20055039

fc1.weight f4 [120, 288]
000000 84 8e 14 3c 0b c0 44 3d 9e ef 10 bd bf 65 36 3d
       0.0090671815 0.04803471 -0.035384767 0.044530626
000010 94 20 22 bc fe d6 b6 bc 01 89 27 3d 3e 4a 8e 3c
       -0.009895463 -0.022319313 0.04090214 0.017369386
000020 e0 96 04 bb 8e ce 22 bd 80 f8 46 3d 75 43 0b 3c
       -0.002023153 -0.039747767 0.04857683 0.00849997
000030 92 e3 c1 bb 92 de 6a 3d a0 49 99 3c 99 85 65 3d
       -0.005917021 0.057341166 0.018711865 0.05603561
000040 f3 6d 32 3d 21 5f a1 3b db 22 55 3d cd 6b 1f 3d
       0.043561887 0.0049246703 0.052035194 0.038921166
000050 c9 2e 63 3c 64 09 35 bd 98 1e 59 bd 68 6f 59 3d
       0.013866135 -0.04419841 -0.053007692 0.05308476
000060 12 73 0f bd 89 a9 f6 bc bf 0c 0e bc 66 d3 60 bd
       -0.03502185 -0.030110138 -0.008670031 -0.054889105
000070 50 88 22 3b 0c 5f 2d bd a2 66 bc 3c 7b 12 71 3d
       0.0024800487 -0.042326972 0.022998158 0.058855515
000080 89 f2 00 3d 5b cf 03 3d 53 6a 43 3d 24 68 0a bd
       0.0314813 0.03218017 0.04770882 -0.033790722
000090 7f dd 3a bd a8 da 57 bc ee 82 cd 3c a2 29 b0 bc
       -0.04562139 -0.01317469 0.025086846 -0.021504227
0000a0 3e 15 f3 3c 47 37 15 3d 0c db 57 3c 32 ff ce 3c
       0.029673215 0.03642967 0.013174783 0.025268171
0000b0 22 39 f0 3c 13 34 23 3d 7a d0 8a bc 3a d0 1c bd
       0.029324118 0.039844584 -0.016945112 -0.038284518
0000c0 33 c9 13 3d 00 fd cc ba d8 2f 89 3b f3 83 4e 3d
       0.03608055 -0.0015639365 0.0041866116 0.050418805
0000d0 4e e7 8e 3c 9c c2 27 bc a6 e3 cd 3c 5b 2a f2 3b
       0.017444279 -0.01023927 0.025132965 0.007390303
0000e0 74 a5 cf 3c 89 97 49 3d de 85 da bc 47 20 44 bd
       0.025347449 0.04921678 -0.026675161 -0.047882345
0000f0 1d a2 2c bc d4 32 d0 3c 67 bd 62 bd 55 18 55 bd
       -0.010536698 0.025414862 -0.05535641 -0.052025158
000100 65 0f 41 3d 2f 3d 6f bd 06 fa ba 3c f7 02 fd bc
       0.047133822 -0.05840796 0.022824299 -0.030885203
000110 9e b5 01 bd 57 03 60 3d b4 5e 10 3c c0 5b 90 3a
       -0.031667344 0.054690685 0.0088116415 0.0011013672
000120 d6 44 42 bd 40 6c cf bb 3c 68 6d 3c 2e 4f b5 bc
       -0.04742893 -0.006330043 0.014490183 -0.022132482
000130 78 fb e1 3b 40 49 10 bc b5 87 0c bd e5 97 14 3d
       0.0068964325 -0.008806527 -0.034309108 0.03627767
000140 a5 9a 3d 3d 2e 24 c0 3c 80 fa 26 3d 8b 4e ca 3b
       0.04629006 0.023454752 0.04076624 0.006173914
000150 6a 87 d3 bc a9 11 34 3d 24 5e 10 3d ec 6e e4 3c
       -0.025821406 0.043962155 0.03524603 0.027884923
000160 75 f6 55 bd 60 76 1e 3d be db cd bb fb b7 af bc
       -0.052236993 0.03868711 -0.006282299 -0.021450033
000170 83 c5 87 3c e7 8f 59 3d 36 69 37 bd f1 b9 40 bd
       0.016573673 0.05311575 -0.04477807 -0.047052328
000180 01 d0 62 bd f0 82 b2 3c 03 d8 f3 bb 05 c2 5b 3d
       -0.05537415 0.021790951 -0.007441522 0.05365183
000190 8d a9 e4 3c 02 a1 5e bd ae 40 5e bd 17 f5 0a bd
       0.02791288 -0.054352768 -0.054260902 -0.033925142
0001a0 14 94 8f bc d2 5a 8a 3c 7d 4e 14 3d 77 c2 e0 3c
       -0.017526664 0.01688901 0.036207665 0.027436478
0001b0 85 c4 5d 3d eb 46 b7 3b f4 17 2d 3d a4 2a 4c 3c
       0.054142494 0.005593171 0.04225917 0.012461338
0001c0 1f 74 a3 bb 3b 5d 2e bd 54 75 52 3d bf 78 2a 3d
       -0.004988208 -0.04256938 0.051381424 0.04161906
0001d0 e6 97 4a bd 47 b1 61 3d 51 2e 1a 3d 48 12 c8 bb
       -0.049461268 0.055100705 0.037641827 -0.006105695
0001e0 61 51 20 3d 5a 97 fc 3c e2 92 bc 3c f4 6a 47 3c
       0.03914011 0.030833889 0.023019258 0.012171496
0001f0 48 fe e8 3b 16 de f1 bc e1 f4 07 bd 82 31 bb 3c
       0.007110391 -0.029524844 -0.03319252 0.022850756
000200 f4 14 1d bd 46 fc f7 3a 00 bd bc 3b 88 47 4a bd
       -0.03835006 0.0018919788 0.0057598352 -0.049384624
000210 1b 61 32 bd 5b 95 a8 bc d7 f5 ab 3c dc 7b d7 3c
       -0.04354964 -0.02057903 0.020991249 0.026304178
000220 67 01 c9 3b 86 e8 14 3d 2f 98 5a 3c 9a 74 73 3b
       0.0061342004 0.036354564 0.013341947 0.0037148357
000230 9c 03 e7 3c 92 5c 2b 3d 7f e7 88 bc 9a d5 26 bd
       0.028199963 0.04183633 -0.016711948 -0.04073105
000240 64 cd a7 bc ee ad 40 3d 5b e9 27 bc 9a 10 37 3d
       -0.02048368 0.047040872 -0.010248507 0.044693567
000250 2b f1 7a bc b2 28 b1 bc 5f 5a cb bc 1f 97 f0 3c
       -0.015316288 -0.02162585 -0.024823366 0.029368935
000260 4e 34 0e 3d a8 02 77 3b 8f e5 1c 3d 12 6e cc 3c
       0.03471785 0.0037690792 0.03830486 0.02495483
000270 22 6b 39 3c f1 df 41 3d a8 bc 71 3a 9e b0 a4 bc
       0.011317046 0.047332708 0.00092215324 -0.020103749
000280 57 3c cf bb 6e 19 30 3d b3 81 69 bd 24 93 e0 bb
       -0.0063243317 0.042993 -0.057008456 -0.006853478
000290 9a 8c 9f bc 41 7a ef bc 3b de 0c 3d 87 03 5a 3d
       -0.019476224 -0.0292331 0.034391623 0.05322602
0002a0 67 7b 3b bd 65 96 21 bc d5 d5 40 3d 28 71 bf bb
       -0.045771983 -0.009862517 0.047078926 -0.0058423467
0002b0 00 38 dc 37 56 27 d2 bc 9e 8c e8 3c a4 e8 2b bc
       2.625212e-05 -0.025653522 0.028387364 -0.010492478
0002c0 42 27 3c bd ac 3b 7d bc 9c 7a 12 bc c8 c9 f6 3b
       -0.045935877 -0.015456121 -0.008940365 0.0075313784
0002d0 88 f1 c1 bc 83 b1 2f bd 85 f1 83 3c 61 aa 68 bc
       -0.023674741 -0.042893898 0.016106376 -0.014200778
0002e0 8c 2f 57 bd 94 dd 7d 3c 5e d3 0f 3d 29 e2 41 bd
       -0.05253558 0.015494723 0.035113685 -0.047334824
0002f0 72 8c 20 bd 7d d3 06 bd 38 e8 f6 bb 9e d7 a4 bc
       -0.03919644 -0.032916535 -0.007535007 -0.020122346
000300 e0 16 20 bc 1b b1 64 3d 9a 0a 27 bd f5 11 4a bd
       -0.009771079 0.055832963 -0.040781595 -0.04933353
000310 b9 49 0c 3d 10 47 18 bc 52 ab 3d bd e5 97 0f ba
       0.034249995 -0.009294286 -0.046305962 -0.0005477651
000320 6a 99 18 bc 8a fa 0e bd a9 43 0d bc fa 38 72 bd
       -0.0093139205 -0.0349069 -0.0086220885 -0.05913637
000330 9c 87 86 bc c5 76 3f bd 8a 97 5c bd 0a f0 3f bd
       -0.016422085 -0.046744127 -0.053855456 -0.04685978
000340 40 1a 6e bb 0e 08 05 bd cc e4 4f bc 2e d6 15 bd
       -0.0036331564 -0.032478385 -0.012688827 -0.03658121
000350 d6 83 90 3c c8 4d ac bc 80 a6 02 ba d8 66 d3 3b
       0.01764099 -0.021033183 -0.0004983917 0.006451469
000360 9d 2c 33 bd e2 73 56 bd 7f bf 1b 3c aa 32 43 bd
       -0.04374372 -0.05235661 0.009506105 -0.04765574
000370 8c 74 06 3d 9e b3 6c 3d 2a df 27 bd 21 ce bb bb
       0.03282599 0.057788484 -0.04098431 -0.0057313596
000380 5b e3 06 3c c1 09 29 3d 94 61 14 3c 90 4f 56 bb
       0.008232917 0.041269068 0.009056468 -0.0032701232
000390 74 8b d2 bc 18 21 ed 3b 72 76 db 3c 88 3f 8f bc
       -0.025701262 0.007236611 0.026789878 -0.017486349
0003a0 c0 de 4b 3b 15 4a 6c bd ae 4f 2a bd 26 9b 0c bd
       0.003110811 -0.057687838 -0.041579895 -0.03432765
0003b0 26 ee f3 bc d4 76 3b 3c ee e4 33 bd e1 e5 63 bd
       -0.029776644 0.011441905 -0.043919496 -0.05563915
0003c0 d6 4d d0 bc aa 9e 81 bc 04 03 39 3c db 3f 38 bd
       -0.02542774 -0.015822727 0.011292223 -0.044982772
0003d0 47 45 56 bc aa 8c 30 bd c0 a1 32 3d 3c e8 b8 bc
       -0.01307804 -0.043102898 0.043611288 -0.022571675
0003e0 21 e9 0f 3c b7 5c 69 bd 60 91 2a 3d c6 57 f1 bc
       0.00878361 -0.056973185 0.041642547 -0.029460799
0003f0 b3 36 1b 3d c0 72 28 bd 7c bb bc bc e8 8e e7 3c
       0.037893962 -0.04112506 -0.023038618 0.028266385

fc1.bias f4 [120]
000000 a1 7e 5f 3d e4 8b 65 3d 8f d0 3f bd 6b 5a 3b bb
       0.054564122 0.056041613 -0.046829756 -0.002858783
000010 d9 2a 99 3c f8 5c ca bc 2b 4d 54 bd 32 84 28 bd
       0.01869719 -0.024702534 -0.051831406 -0.041141696
000020 ee 5f d0 bc 48 90 6f 3d 50 10 52 3d 0f 1f af bb
       -0.025436368 0.058487207 0.051285088 -0.0053442786
000030 72 af aa 3c 56 d6 2e bd c4 71 1a 3d 64 e0 4e bd
       0.020835612 -0.042684875 0.03770615 -0.050506964
000040 11 62 73 3d 5a 9b cd bc f9 8f 18 3d 0c 4f e5 bc
       0.059419695 -0.025098491 0.037246678 -0.027991794
000050 a5 7c 33 3d 6e bc 17 3c a4 2c 1d bc d8 97 38 bd
       0.043820042 0.009261234 -0.009593163 -0.045066684
000060 a9 d1 6d 3d 2a f4 71 bd b0 17 84 3c 40 86 20 bc
       0.058061276 -0.059070744 0.016124576 -0.009797633
000070 4d 27 3b bd 10 7a 2a 3b 37 8a d5 3c 3b 15 25 bd
       -0.045691777 0.0026012696 0.026066883 -0.04030345
000080 95 8c 15 3d 49 49 13 bd be 65 b5 3c bd 93 5d 3d
       0.036511023 -0.035958562 0.022143241 0.054095972
000090 b0 aa cb 3c 94 46 23 bd b9 0a b4 bc da 02 2d bd
       0.024861664 -0.03986223 -0.02197777 -0.042239048
0000a0 24 b5 72 3c 57 cd f3 3c d5 de 35 3d 35 b6 c7 3c
       0.014813695 0.029761 0.044401962 0.024378875
0000b0 f6 31 35 bd a0 a0 97 bb 87 1a 45 3d 8b 05 1c 3d
       -0.0442371 -0.0046273023 0.048121 0.038091224
0000c0 98 23 93 bc e1 14 3f 3d be de b8 bc a9 86 e3 bb
       -0.017961308 0.04665077 -0.02256715 -0.006943543
0000d0 74 6c 49 3c d5 14 0b bd f1 b1 65 bc b1 3d 58 3d
       0.012293924 -0.033955414 -0.014019475 0.05279321
0000e0 d9 aa 29 3d 10 b8 1b bb b0 4f 1a bb bd 11 2b bd
       0.0414227 -0.0023760833 -0.0023546033 -0.041764963
0000f0 b7 67 02 3d f1 84 2e 3d 81 4a 1e 3d 00 80 bd bb
       0.03183719 0.04260725 0.03864527 -0.005783081
000100 aa fb 6f 3d 85 6c 63 3c c6 41 27 bd e4 a3 2d bc
       0.058589615 0.013880854 -0.04083421 -0.010598157
000110 04 a0 1c 3c ff ed f3 3c a3 ca 50 bd ee 9a 3e 3d
       0.009559635 0.029776571 -0.0509745 0.04653447
000120 d4 3b 21 bd 48 7f 1d bc e9 f7 29 3d 05 e4 43 3d
       -0.039363697 -0.009612866 0.04149619 0.04782488
000130 b7 ae 6a bd 56 21 52 3d c0 55 48 bc 2e 7f 1f bd
       -0.057295527 0.051301323 -0.012227476 -0.038939647
000140 0d cb 2c 3d 56 82 12 3d 4d 5e 39 3d 1a ef 40 bd
       0.04218583 0.03576883 0.045255948 -0.047103025
000150 89 ca 12 bd 69 a2 9c 3c e0 ae 69 bd 88 88 84 3c
       -0.035837684 0.019120412 -0.05705154 0.016178384
000160 79 e6 9f bc 83 54 0d bc d7 69 e0 bc 5b 3b 3d bd
       -0.019519078 -0.008626106 -0.027394218 -0.046199184
000170 1b e1 59 bd b1 ea 60 3d d4 05 21 bc f8 cf 35 3d
       -0.053193193 0.05491132 -0.00982805 0.044387788
000180 a9 40 d4 3c 94 c5 75 3c 18 e8 a7 bc c5 78 67 bc
       0.025909739 0.01500072 -0.020496413 -0.014127915
000190 56 dd 40 bb bd 2c 52 bd 3c d7 13 bc 2b e5 ac bc
       -0.0029428801 -0.051312197 -0.009023484 -0.02110537
0001a0 be 94 ed bc 06 ab cf bc 47 b4 7e 3b 5c 55 de bc
       -0.02900159 -0.025350105 0.0038864778 -0.027140312
0001b0 49 a3 23 3b 58 27 ce bc 5b 19 3e 3c 39 4e ca 3c
       0.0024969152 -0.025165245 0.011602725 0.024695503
0001c0 22 f2 0b 3d a6 fe 49 3d c8 23 70 3d 89 2c 72 3c
       0.034166463 0.049315117 0.058627874 0.014781126
0001d0 a8 95 54 3d 32 63 0c 3c 7e cd b6 3c 41 fb 78 3c
       0.051900536 0.008568572 0.022314783 0.015196622

actor.weight f4 [9, 120]
000000 bc 69 8c 3d d7 4e 1b 3c ca 97 ad 3d 00 78 42 bd
       0.06856105 0.009479246 0.08476217 -0.047477722
000010 ec 58 66 3d 8f e2 9e bd 68 d4 82 bd 09 8f 14 bc
       0.056237146 -0.07758056 -0.063881695 -0.009067305
000020 0f 50 8b bd 61 fe 5b bd 6c 4e b8 bd 9c 2f 29 bd
       -0.06802379 -0.05370939 -0.08999333 -0.04130517
000030 10 03 74 bd 26 60 b1 bd 36 06 19 3d 94 15 9d bd
       -0.059573233 -0.08660917 0.03735944 -0.07670131
000040 21 c8 3b bd d8 ea 95 bd e6 15 a6 bb 90 50 72 3d
       -0.045845155 -0.073201835 -0.0050685285 0.05915886
000050 c9 bd 77 3d 56 08 3f 3c 24 0a fb 3c 01 dd a1 bc
       0.060483728 0.011659702 0.030644484 -0.019758703
000060 bd 87 05 3d 37 6b 43 bb 66 a0 19 3d cc 14 14 3d
       0.032600153 -0.0029818544 0.037506483 0.036152646
000070 7c 56 68 3d 47 b9 02 bd 79 04 b2 bc 68 8b de bc
       0.056723103 -0.031914975 -0.021730648 -0.027166083
000080 74 43 28 3d 99 b8 94 3d 9d 05 0c 3d 9a 54 af 3d
       0.041079953 0.07261772 0.03418504 0.08561058
000090 e5 c2 e5 bc 9c e0 8e bd 0e f3 36 bd 93 66 40 bd
       -0.028047035 -0.069764346 -0.04466539 -0.046972822
0000a0 e4 18 73 3d 6f 09 d7 bc 92 89 ab bd 67 cf a4 3d
       0.05934991 -0.026249615 -0.08375849 0.08047371
0000b0 8b 5b 5e 3d 8e 7f 94 bd bd a2 82 bd e9 39 10 bb
       0.05428652 -0.072508916 -0.06378696 -0.0022007173
0000c0 35 91 71 3d 9a 8e 18 bd c0 4a 8f ba c9 3c 9a bd
       0.05897637 -0.03724537 -0.0010932311 -0.07531125
0000d0 8d a5 5f bd 43 72 98 3d 1b 46 6d 3d 31 2c 8d 3d
       -0.05460124 0.07443669 0.057928186 0.068931945
0000e0 24 c8 45 bd 48 66 32 3c a4 d2 7a 3d ff fd 50 bb
       -0.048286572 0.010888644 0.06123604 -0.0031889675
0000f0 85 17 e8 3c 91 8f 8e 3d 54 ce 0b 3d 3f 5b 97 bd
       0.028331527 0.06960977 0.034132317 -0.07390451
000100 54 b3 aa 3d 1c 6d 9b 3d ad 5d 14 3d a4 f8 4e 3d
       0.083349854 0.0758917 0.03622215 0.05053009
000110 20 28 0a 3b 6a c0 fc 3c 4f 7a 15 bd 22 41 72 3d
       0.0021081045 0.030853469 -0.036493596 0.059144147
000120 d8 90 a2 bd 80 ec a5 bd 13 18 80 bd a0 f5 89 3d
       -0.07937783 -0.081017494 -0.06254592 0.067363024
000130 e3 dd 52 bc d1 82 94 bd 1c 2f a7 bd 90 a5 45 3d
       -0.012870285 -0.07251514 -0.08163282 0.048253596
000140 4c 1b c6 bc 4b 1b a1 bd 91 c6 ae bd 2c 57 3a 3d
       -0.024182938 -0.07866534 -0.08533967 0.04549329
000150 78 1e 42 3d 7e 37 71 ba 14 f0 ab bd 28 3b 98 bd
       0.04739234 -0.00092016894 -0.08395401 -0.07433158
000160 54 ae 79 bd 2a f5 4f bc d7 b6 af 3d b6 47 86 3d
       -0.060957268 -0.012692729 0.08579796 0.065566465
000170 ae 05 49 3d f0 f0 f6 3a f0 d7 77 bd 7e 27 ae bd
       0.049077682 0.0018840116 -0.06050867 -0.08503626
000180 bd e1 dc bc c0 66 a2 ba 1d ca 9e bd 5e 3d 32 bd
       -0.02696311 -0.0012390241 -0.07753394 -0.043515556
000190 7b 9a 27 bd 2b 59 9f 3d 98 6d 8f 3d d8 4b b9 bd
       -0.04091881 0.07780679 0.07003325 -0.09047669
0001a0 24 31 a2 bc 41 0f e1 3c 73 f2 f4 3c 0d f1 76 3d
       -0.019798823 0.027473094 0.029900765 0.060288478
0001b0 88 3b ba bc a0 ba a6 bb bd db 72 3d ca 8e a1 bc
       -0.022733465 -0.0050881654 0.05929159 -0.019721407
0001c0 aa f6 72 bd a0 19 96 bc c7 24 24 bd b5 d9 93 3d
       -0.05931727 -0.018322766 -0.040074136 0.07219259
0001d0 ad 8d 77 bc fd 11 1f 3d 00 45 80 3c 66 50 a8 3d
       -0.015109462 0.038835514 0.015657902 0.0821846
0001e0 4c 38 9f bd a3 85 95 bd 24 ef ba bc 03 20 ac bd
       -0.0777441 -0.0730088 -0.02281911 -0.08404543
0001f0 24 25 64 3d dc 7d 92 3d 04 dd be bc 37 59 04 bd
       0.055699483 0.07152912 -0.023298748 -0.032311644
000200 78 d6 34 3d fe ee 95 3c 57 23 2f 3d be 21 07 3d
       0.044149846 0.018302437 0.042758312 0.032991163
000210 d8 26 77 3d fe c6 8d 3d 36 0e b2 3c 70 1b 0d 3c
       0.06033978 0.069227204 0.021735292 0.008612499
000220 6a 23 a4 3d 36 b7 b8 3d c4 67 1e bd c6 44 a8 bd
       0.08014567 0.0901932 -0.038673177 -0.082162425
000230 4b 12 31 3d 18 ca c9 bc cc dd ae bd dd f2 8c 3d
       0.043230336 -0.024632499 -0.08538398 0.0688226
000240 61 83 a3 3d 84 bc e5 bc 8d a9 7c bd 40 bb 46 3d
       0.07984043 -0.028043993 -0.061685134 0.04851842
000250 40 e7 10 bd b6 45 8e 3d d5 f9 80 bd 84 d0 54 3d
       -0.035376787 0.0694689 -0.06297652 0.05195667
000260 e0 5f c8 3c c8 1c c7 bb f3 5f 3a bd fd 1d 64 3d
       0.02445978 -0.006076429 -0.04550166 0.05569266
000270 b7 04 58 bd d2 1c 83 3d cb 7a a1 3d 06 3b a1 3d
       -0.05273887 0.064019814 0.07884749 0.07872586
000280 d8 71 af bc 8b 3c 12 bd 4c 11 71 3d 5b 38 44 3b
       -0.02141659 -0.03570227 0.058854386 0.0029940817
000290 db 6e a7 3d d0 cb b5 3d 28 96 61 3d 47 4e 7f bd
       0.08175441 0.08876765 0.05507484 -0.06233051
0002a0 1e a0 a0 3d ec d1 db bc 70 c7 c9 3c 1c d3 aa bd
       0.0784304 -0.026833497 0.024631232 -0.08341047
0002b0 8a 6c a0 3d 97 2c 7f bd 2e da 82 3d ce 16 cf bc
       0.07833202 -0.062298384 0.06389271 -0.025279429
0002c0 ec 3b c7 bb 30 57 b7 bc a0 21 d8 bc 93 bf 84 3a
       -0.0060801413 -0.022380441 -0.026383221 0.0010127894
0002d0 96 48 89 bd c3 8d a9 3d fb 07 67 bd b4 d9 2f 3d
       -0.06703298 0.08278992 -0.056404095 0.042932227
0002e0 ef 6d 84 bd 31 2b 36 3d 1f 8b 70 3d 03 6f 8a bd
       -0.06466281 0.044474784 0.058726426 -0.06759455
0002f0 d0 45 3d 3d 0d f2 05 3d 43 6a 47 3c 74 84 d3 bc
       0.046209157 0.03270154 0.012171331 -0.025819995
000300 32 f1 74 bd e6 64 fb bc 50 00 0d 3d 32 58 18 bd
       -0.059800334 -0.03068776 0.034424126 -0.037193485
000310 80 4a b9 bc 58 18 a5 bc c0 60 5b 3d 50 52 1d 3d
       -0.022618532 -0.02015321 0.053559065 0.038408577
000320 fa 0c cb 3c 04 c4 86 3d 98 a6 d8 bc f8 9b 78 3d
       0.024786461 0.06580356 -0.026446626 0.06069562
000330 a0 18 9d bd fa 4e 1c 3d 70 68 34 3d f7 56 99 bd
       -0.076707125 0.038161255 0.04404491 -0.0748729
000340 94 6d 95 3c d2 f6 3f 3d 12 3f 8e 3d b0 3e 5f 3d
       0.018240727 0.046866246 0.069456235 0.054503143
000350 f4 cf 4e 3d 7d a2 b1 3a 1c d4 7f bd 27 74 fe bc
       0.05049129 0.0013552454 -0.062458143 -0.031061245
000360 45 bf 66 bd dd ef 47 bd ec 75 5e 3d 54 5d a3 bc
       -0.056334753 -0.048812736 0.054311678 -0.019941963
000370 ac 38 09 bd 89 f8 ef bc ca 53 01 bd 72 76 7a 3c
       -0.033501312 -0.029293315 -0.031574048 0.015287029
000380 04 ae 87 bd a7 b6 91 bd 97 32 a6 3d f8 54 80 3d
       -0.06624988 -0.07114916 0.08115118 0.062662065
000390 ae 72 98 bd d0 85 31 3d ae 7a 96 bd 20 e3 80 bd
       -0.074437484 0.043340504 -0.07347618 -0.06293321
0003a0 6f 19 a6 bd 9f a4 64 3c ff dd 55 bc 25 38 ba 3c
       -0.0811032 0.013955264 -0.013053416 0.02273185
0003b0 b8 be 23 bd fc 99 be bc 60 25 d2 3c 28 8c 55 bd
       -0.039976805 -0.023266785 0.025652587 -0.052135617
0003c0 71 1a 9d 3c f8 a0 69 3d 1c 8b 73 bd ab 8c 9a 3d
       0.019177647 0.057038277 -0.059458837 0.075463615
0003d0 d3 76 88 3d 9b c6 b7 bd 49 5d d3 3c ed 55 f9 3c
       0.06663289 -0.08973428 0.025801318 0.03043648
0003e0 30 85 74 3c 18 10 73 bd 96 48 71 3d e7 ad e5 bc
       0.0149243325 -0.05934152 0.058907114 -0.028037025
0003f0 f8 af a5 3d f4 3d a2 3c 4d 06 ba bd fe 2a 24 bd
       0.08090204 0.019804932 -0.09083233 -0.040080063

actor.bias f4 [9]
000000 39 fc 9c bd 04 49 6e bd 23 23 b6 bc ef aa a7 bd
       -0.07665295 -0.058175102 -0.022233551 -0.081869
000010 b3 0a 47 3c ea 93 c5 bb 09 ff 88 3d e4 af 22 3d
       0.012148547 -0.0060295956 0.06689269 0.039718524
000020 b3 3e 85 3d
       0.065060996

critic.weight f4 [1, 120]
000000 aa c5 91 bd 62 8f 47 3d 84 7e 63 3d f7 3a 2a 3d
       -0.071177796 0.048720725 0.055540577 0.04156014
000010 06 9e e0 bb d9 f3 ac 3d 5d 66 68 3d fd 47 00 bd
       -0.0068547754 0.08444948 0.056738246 -0.031318653
000020 ec bd 19 3d 1f 5b 65 3d 2a 96 8f bd e5 32 96 3c
       0.03753464 0.055995103 -0.070110634 0.018334815
000030 e9 de 8e bd 14 79 41 bd 0b a3 6a bc 8c 15 a2 bd
       -0.069761105 -0.04723461 -0.014321099 -0.07914266
000040 fb b3 4f 3d 74 7c 48 3d 9e 0e eb bb d8 0c 01 3c
       0.050708752 0.048946813 -0.0071733734 0.007876597
000050 ba cd 99 bc b4 24 8e bd e0 c5 49 3b 89 dc 89 3d
       -0.018774856 -0.06940594 0.0030788109 0.06731517
000060 70 80 4e 3d e8 28 63 bd c7 aa 8a 3d 60 91 35 3d
       0.050415456 -0.055458933 0.067708544 0.044328094
000070 ac 99 d0 3c fe 9d ab 3d b1 0c 5d bb ec 0b 66 3d
       0.025463901 0.08379744 -0.0033729488 0.056163713
000080 a2 85 09 3d 48 dd 84 bd 76 62 89 bd 97 1e a7 bc
       0.033574708 -0.064875185 -0.06708233 -0.020400329
000090 bb f7 89 bd 0c 9b 92 3d 55 81 a9 3c b2 06 e0 bc
       -0.06736704 0.07158479 0.020691553 -0.027346943
0000a0 37 42 85 bd 75 9c 5e bc 90 51 3f bd e9 5f 22 3d
       -0.0650677 -0.013587107 -0.046708643 0.03964225
0000b0 32 f4 3f bb 6a ad 83 bd 65 79 b8 bc e4 f8 f2 3c
       -0.002928984 -0.064295605 -0.022518823 0.029659696
0000c0 48 b6 26 bd 1c ad a3 3d 58 ee aa 3d b2 af 7a bd
       -0.04070118 0.07992002 0.08346242 -0.061202712
0000d0 d0 74 b8 3d de b2 86 bd eb 96 c0 bb 45 9d 74 3d
       0.09006655 -0.06577085 -0.005877366 0.059720296
0000e0 d3 1f 28 3d 4c 1d 10 3d fc 4f e9 bc bd 07 5c 3d
       0.041045975 0.03518419 -0.028480522 0.053718317
0000f0 e9 11 ae 3c fb b0 3e 3c fa fd 85 3d 58 e5 79 3c
       0.021248775 0.011638875 0.06542583 0.015252434
000100 dd bf 88 3d 57 75 a9 3d 5f 2b 49 bd d8 ef 12 3d
       0.0667722 0.08274334 -0.049113628 0.035873264
000110 4a 43 a7 bd 53 ea ce bc 65 99 b6 bd 04 bf b4 bd
       -0.08167131 -0.025258219 -0.089159764 -0.08825496
000120 ec c1 5d 3d 79 83 52 bd 00 bf 5c 3a a2 eb 0e bd
       0.054140016 -0.051394913 0.0008420795 -0.034892686
000130 8c 2f a8 3c 5f da 35 3d c4 05 20 3d 40 75 b2 3a
       0.020530485 0.044397708 0.039068 0.0013615265
000140 65 01 35 bd 01 12 3b 3d c0 28 b3 bb e7 39 b1 bd
       -0.044190783 0.045671467 -0.0054675043 -0.08653622
000150 40 19 7e bc 42 1c 44 3d 90 5a b6 3d 81 13 a0 3d
       -0.01550895 0.04787851 0.08903992 0.0781622
000160 7f 96 0d 3d 55 a9 1e bd e2 05 0f bd c8 b7 b0 3d
       0.034567352 -0.038735706 -0.03491772 0.086288035
000170 99 27 f4 bc 96 ff 3f 3d 82 e6 b3 3d f6 cd 4e 3d
       -0.029804038 0.046874605 0.087842 0.05048939
000180 9c 25 aa bc 5d ec 6c bd 53 be 74 bd 39 12 0d 3d
       -0.020769887 -0.0578426 -0.05975182 0.034441207
000190 46 a1 8f 3c e0 4c 08 bc d8 18 af 3d 08 49 94 3c
       0.017532956 -0.00831911 0.085496604 0.01810123
0001a0 da 85 97 3d cb b5 8c 3d 1f 33 9d 3d fa 0d b1 3c
       0.07398577 0.06870612 0.07675766 0.02161311
0001b0 1a 82 b7 ba 39 a6 29 bd a7 25 47 bd 8c d1 a1 bd
       -0.0014000565 -0.041418288 -0.048619892 -0.07901296
0001c0 57 3a 03 3d 6b 87 a7 bd ce 9f 38 3d 89 0a 24 3c
       0.03203806 -0.08180126 0.045074277 0.010012277
0001d0 67 b9 ac 3d 04 94 e0 3c 50 21 70 bc a3 59 b1 3c
       0.084338 0.02741433 -0.01465638 0.021649187
